fitting/model_parameters.npz (npz, 161310 bytes, 5 tensors)

rS_posterior f8 [4000]
00000000: c703 dbd2 b4d5 c93f b799 0af1 487c d03f
00000010: 0349 3371 065a cf3f 197a bc77 716e cf3f
00000020: 4418 dc62 c08a cb3f 4e13 3267 e865 ca3f
00000030: 8613 e2db 0514 ca3f bc23 63b5 f9ff cc3f
00000040: 7fdd 0add fc71 c63f 1191 f52f a41e ca3f
00000050: 47e3 71cd f47d c93f b1a7 3e0c 84cf c83f
00000060: ea71 63a3 4144 c93f 566b bccf 4c8b c83f
00000070: 294e a4ea 0dad ca3f 96ed e0b3 b70c ca3f
00000080: acf0 1deb 98a9 c73f efc9 6018 f200 c93f
00000090: b828 edec afc7 cb3f 3406 8473 99dc cb3f
000000a0: 216d 8896 e1e4 cc3f a737 cc65 dd1e cd3f
000000b0: edd9 528b b161 c53f 54b3 ffe8 380a c53f
000000c0: e246 8089 2ede c53f 00c1 7f67 39d8 c53f
000000d0: a860 2218 e608 c53f ff03 308e 5f32 c53f
000000e0: 70e0 611c 54c9 c33f b9da 5052 dcc8 c33f
000000f0: 6107 c6a8 0843 c43f 5590 760e 2bfd c33f
00000100: feb4 72ab f786 c63f 6628 72b1 37eb cb3f
00000110: 4c13 5be6 19a0 c63f 9a5b c6f2 5341 c63f
00000120: b58d 1e43 f08d c73f 3516 24e8 f5c8 c73f
00000130: c7d4 7ee7 ee25 c73f d3c7 b6eb 29e2 c93f
00000140: 9c67 7084 daa9 c93f ba9a 02ba abae c93f
00000150: b197 f950 9ab4 c93f 89c1 706c 4534 c93f
00000160: 4661 d528 3d36 c83f fbb7 a2ff ab2f c83f
00000170: 87cf 4a18 d53b c83f 1bf2 3237 9dec c73f
00000180: 521e 0688 bc44 c73f c005 3cdd 37c6 c83f
00000190: afe9 4141 29da c83f 4ebb 353c ffee c83f
000001a0: d746 c011 7218 c83f 1bf3 7cfe 6253 c53f
000001b0: 1398 9007 09ee cb3f c57d bb57 7321 ca3f
000001c0: efc5 9b25 964e cc3f b76f 8314 1bf7 c83f
000001d0: b905 4304 b997 c63f 2e96 1a88 0289 c63f
000001e0: b117 a7ad 53dd c63f 8347 9f7f 50d1 c63f
000001f0: 1a28 3adc 581a c83f db59 cbcf d3a1 c63f
00000200: f3d8 019d 6aa9 c63f eec8 1ec2 7431 c63f
00000210: 60ea 4207 b8fb cc3f 4ece f522 7fd5 ca3f
00000220: 3841 27c6 2a8c cb3f 52c9 08c1 0d25 cb3f
00000230: 5746 3c3c f8c7 ca3f c9db 7ce9 0ede ca3f
00000240: 364f 5c2b 2de5 ca3f 8c0d a341 86e5 ca3f
00000250: bbd6 5a6f 06c5 cb3f 1c3b b035 bea3 c83f
00000260: 2100 5904 d65c ca3f f3e0 30c9 af3c ca3f
00000270: b3c2 5f59 8a60 c43f 60d8 2f12 b964 c63f
00000280: ae04 bdfd da76 c23f 1426 082e c16f c23f
00000290: 6f07 3422 6294 c13f 9e0b 44cb 9100 c33f
000002a0: 43e7 d24b ce81 c63f b410 f482 1548 c53f
000002b0: e754 f0e3 812b c53f 5b6a 5244 6547 c53f
000002c0: 8e0f 690a 534a c23f 71b0 b3f8 7f9b c43f
000002d0: 40ec b73c f79a c93f b92e a127 0a19 c83f
000002e0: bd5b 723f 5458 c83f dcb7 9c43 000d ca3f
000002f0: 7aeb b24e 4be2 c93f dd29 7865 72c5 c93f
00000300: e768 d983 ded5 c93f fb85 ecf6 38d7 c93f
00000310: 10ba beee f89f c63f 9ca7 f8c7 94f2 c53f
00000320: 2230 bd9a 8fad c73f fdb9 0d0f 06c3 c73f
00000330: 7444 7c2f d785 c73f bc98 c173 4a1b c93f
00000340: dd1c 9538 7e6a c83f a652 60bf 2fc7 ca3f
00000350: 55a2 4f58 a065 c83f 1085 643b be41 c83f
00000360: cc48 1861 e52b c63f 8383 41c2 c544 cb3f
00000370: f090 3901 13d9 c93f 454d 91cf 6dba c93f
00000380: 3e2c cc29 9e06 ce3f ea57 5b2d 8748 cd3f
00000390: d2e0 b6b6 f03c cd3f cf65 ac2e 8ee7 ca3f
000003a0: 8e8f 9a9f b07e c53f 86a2 8a2c e370 c33f
000003b0: 2ef6 87fb 02d9 c33f 3d5f 3795 da45 cb3f
000003c0: e8d9 8bec 734a c83f 3f82 ea38 e152 c83f
000003d0: e53c adec cc4e cb3f 6c63 895a dc77 ca3f
000003e0: 8313 34da 6808 ca3f 5c31 8e57 4108 c83f
000003f0: a8e8 c4f5 5a16 c83f a3df 089c b610 c83f
00000400: bf9a 2412 5c17 c83f a679 ae8c 9986 c83f
00000410: 2344 bfd7 8ce3 c83f f8e2 8bf6 7821 cc3f
00000420: 41d4 0139 f626 cc3f ce52 f4b8 5618 cc3f
00000430: 05a0 d5f2 983b cd3f bbd2 957c aa12 cc3f
00000440: 95d2 33bd c4d8 ca3f 799d e479 364c cb3f
00000450: 9697 ba33 2ca9 cc3f ffb5 383a 1962 c63f
00000460: cee8 c38a 8567 c63f 6957 dfc8 550f c63f
00000470: ad76 e2ac 670c c73f 27d1 dc54 ee4f c73f
00000480: 615f a1c5 0817 c53f 6d1f b07a d9d9 cc3f
00000490: c6b3 ba8b e6b7 c83f b449 f21a c3b5 c83f
000004a0: 9a0d cf9e 0df1 c73f 0841 8156 e400 c83f
000004b0: bba3 5a9f cd05 c83f c82a df12 04b8 c73f
000004c0: bbb0 3dcc c160 c93f d2b1 de03 cf98 c83f
000004d0: b118 549f d4ac c53f b342 f418 a3fd c53f
000004e0: af23 9211 e5c5 c63f 39e9 222a f97d cb3f
000004f0: 6645 798b 2cbe c53f 6a5d d51f 82a6 c53f
00000500: fe91 f141 3291 ca3f 7095 ab48 1a96 ca3f
00000510: fe2c 5406 2785 ca3f 6f12 83c0 ca21 c93f
00000520: 2e84 835a 5fe6 c83f 62d3 3184 efbf c83f
00000530: 8f42 8ae8 74ac c83f 96e4 46b2 c3ef c83f
00000540: 17d6 8d77 47c6 c83f 4bc2 8dad cab2 c83f
00000550: 50f4 861c d796 c83f d07f cd41 e9ee c93f
00000560: 6d8d 4ae2 93eb c93f 9daf c4c9 1e1d cb3f
00000570: 0092 6598 456e cc3f c839 da06 286c cc3f
00000580: c412 07b7 525b cc3f 3b43 c40f c636 ca3f
00000590: fef0 f3df 83d7 c63f 312e 2cea 59b1 c83f
000005a0: 9de7 bab6 d869 c93f 86e3 1a1b 915a c93f
000005b0: 3049 8698 22ab c93f e5da 48c0 8548 c63f
000005c0: 1310 3046 6626 cb3f ce53 5f8e 0522 c93f
000005d0: ceae 73ba c9fb c63f 8185 8208 2758 c73f
000005e0: 8a9d 00f5 2ca9 c73f b0fa 4c8b 3450 c73f
000005f0: 3578 25ea 8166 c63f 9016 46fe 89df c83f
00000600: 5fed 49dc 3aea c83f 6b75 c5ce 0c49 c83f
00000610: e1c7 e248 b16d c83f 05ac d182 8298 c63f
00000620: ebc2 d522 1e60 c63f fe39 5841 0483 c83f
00000630: 7a10 2b71 578e c83f aa3b fd3d 0417 cb3f
00000640: a8e1 5b58 375e c63f b059 89d4 0fc5 c93f
00000650: 7756 c15e 1734 c83f 4b7b 2005 913d c83f
00000660: a692 e802 ea0f cb3f 67e5 a8ed 7005 cb3f
00000670: d946 9792 40de cd3f 3b17 8896 2381 c73f
00000680: 5618 3289 4016 c73f 0ac6 da42 04da c93f
00000690: e652 019c 830c ca3f 5279 9eec 242a ca3f
000006a0: 7b6b 60ab 040b ca3f a7b6 2ffb d0e0 c93f
000006b0: d9b1 f079 eed2 c73f 1f4f 89f3 891f c93f
000006c0: 6f49 ccbb 031f c93f 9108 53b5 594c c93f
000006d0: c8f6 736d 1c6f ca3f 1ebf 1a14 8be7 cb3f
000006e0: 458d f804 3f60 c63f db34 b6d7 825e c63f
000006f0: 856a d65b fb69 c83f b62b f4c1 32b6 c83f
00000700: 2dc2 3d64 0433 c93f c535 80af cf39 ca3f
00000710: a66b 1e6e 245c ca3f 8d6c 7c60 a671 c73f
00000720: 857b 44d0 c148 cb3f 6705 af2b a0af cb3f
00000730: 2300 cd5a e9b9 c23f 3cb4 d9a2 1694 c53f
00000740: 3b4b da9e 6a3e c83f e9cf 23eb 153b c93f
00000750: ffa7 a81b a4b7 c93f e5b2 978e b596 ca3f
00000760: fe7e ef3e e064 ca3f bce2 0c72 d5c4 c83f
00000770: 2476 75e0 ff3b cb3f 87f9 f202 ec23 cb3f
00000780: 3b5d ed93 69d5 ce3f e9cd 2c32 cf04 cd3f
00000790: 18af 3faa dd86 c33f ef04 9885 b8ea c63f
000007a0: 900b 186e 0a75 c93f 62c8 03f4 6f55 cc3f
000007b0: e0d4 8bca 1b9a c63f b8dd 5727 5f37 c73f
000007c0: a230 838c db43 c73f 68b4 f21e a9b6 cb3f
000007d0: 77f5 2a32 3aa0 c83f b88f 3fc5 2f44 c83f
000007e0: a3e2 e6f1 0745 ca3f 9a11 39d8 f6d1 c73f
000007f0: 9824 0130 bf4f c83f 999f b86f f76a c83f
0.2018343 0.25758575 0.24493485 0.24555796 0.21517186 0.20623498 0.20373605 0.22656175
0.17535363 0.2040601 0.19915638 0.19383288 0.19739552 0.1917511 0.2084062 0.20351311
0.1848632 0.19534136 0.21703147 0.21766966 0.2257349 0.22750442 0.16704387 0.16437446
0.17084295 0.17066114 0.16433407 0.16559977 0.15458156 0.15456728 0.15829571 0.15616358
0.17599388 0.21811577 0.1767609 0.17386865 0.18401912 0.18582033 0.18084513 0.20221447
0.20049602 0.20064303 0.20082406 0.19690769 0.18915524 0.18895483 0.18932594 0.18690839
0.18178517 0.19354914 0.19415775 0.19479361 0.18824602 0.16660726 0.21820176 0.20414583
0.22114827 0.19504107 0.17650521 0.17605621 0.17862936 0.17826277 0.18830405 0.17681358
0.17704518 0.17338428 0.22643185 0.2096404 0.21521506 0.21206829 0.20922759 0.20990168
0.21011891 0.21012953 0.21695023 0.19249704 0.20595813 0.20497701 0.15919618 0.17494882
0.14425218 0.14403548 0.1373408 0.14845488 0.17583636 0.16626233 0.16539024 0.16624132
0.1428932 0.16099548 0.20004168 0.18826415 0.19019559 0.20352176 0.20221845 0.2013381
0.20183927 0.20188057 0.17675697 0.17146549 0.18498416 0.18563915 0.18377199 0.19614535
0.19074991 0.20920369 0.19060139 0.18950632 0.1732146 0.21303627 0.20193708 0.20100186
0.23457696 0.22877588 0.22842225 0.21019151 0.16792877 0.15188255 0.15506017 0.21306927
0.18977212 0.19002929 0.2133423 0.20678286 0.20338164 0.18775193 0.18818223 0.18801005
0.18821288 0.19160766 0.19444428 0.2197715 0.21993902 0.21949276 0.22838127 0.21931964
0.20974025 0.21326333 0.22391274 0.17486873 0.17503423 0.17234299 0.18006607 0.1821268
0.16476545 0.22539824 0.1931122 0.19304694 0.18704386 0.18752722 0.1876771 0.18530322
0.19826529 0.19216335 0.16933687 0.17180289 0.17791427 0.2147819 0.16986615 0.16914393
0.20755604 0.20770577 0.20718849 0.19634375 0.19453041 0.19335741 0.19276296 0.19481703
0.193551 0.19295629 0.19210328 0.20260349 0.20250176 0.21182618 0.22211523 0.22205067
0.22153696 0.20479656 0.178452 0.19291233 0.19854268 0.19807638 0.20053513 0.17408821
0.21210936 0.19635076 0.17955896 0.1823777 0.18485033 0.18213517 0.17500328 0.19432187
0.19464813 0.18972931 0.19084755 0.17652923 0.17480828 0.19149831 0.19184392 0.21163991
0.17475025 0.20132635 0.1890897 0.18937886 0.21142316 0.21110355 0.2333451 0.18362851
0.18036658 0.20196584 0.2035069 0.20441114 0.20346125 0.20217335 0.18612462 0.19627499
0.19625899 0.19764253 0.20651584 0.21800364 0.1748122 0.17475925 0.19073431 0.19306025
0.19686942 0.20488926 0.20593696 0.18315582 0.21315787 0.21629717 0.14629857 0.1685818
0.1894048 0.19711565 0.20091678 0.20772428 0.20620349 0.19350689 0.21276854 0.21203375
0.24088783 0.22670927 0.15255328 0.17903811 0.1988843 0.22135734 0.17657802 0.18137731
0.18175835 0.21651186 0.19238975 0.18958089 0.20523166 0.1860951 0.18993368 0.19076436

a_posterior f8 [4000]
00000000: d05c 4cd8 23f9 f33f ca6c 9049 46ae f53f
00000010: 6f95 719d 90a7 f53f 6188 4105 2cfe f33f
00000020: 57b5 ff5c 8ffd f73f 6cf3 b51d 09ca f63f
00000030: 3764 4d76 7d10 f53f 9e95 b4e2 1b6a f33f
00000040: 3529 05dd 5e12 f73f 7b08 f4d3 c963 f53f
00000050: e124 cd1f d3ba f33f d47b cfed cab3 f63f
00000060: 98f0 958a d726 f53f 41c2 e6d2 ae78 f63f
00000070: b77c 2425 3dac 0040 fbc5 1110 3867 0240
00000080: 2aa2 cb40 0a43 0540 2772 778c e180 f73f
00000090: f876 a62b 33a0 f23f f900 930a 193e f23f
000000a0: 7a2a f1ca 3fa4 f13f bf98 d29f a22f f23f
000000b0: 95dc bccc 0bcb f23f 8604 8c2e 6f0e f43f
000000c0: e647 b2fd 1a3f f33f 5eeb 9cb0 0ef1 f23f
000000d0: b894 f3c5 de2b f03f 2867 83a7 eb84 f03f
000000e0: 8ee5 023c 0e08 f13f 0a34 338e ec05 f13f
000000f0: e631 77eb 040d ed3f 027b d0dc d846 ec3f
00000100: 31e6 536c 7192 f03f d2c1 9f86 1448 f63f
00000110: 3ae5 76d4 3df7 fd3f 320b a30f 4c04 f83f
00000120: e17c ea58 a554 fe3f 9a8e a5b4 a32d 0040
00000130: a28b 3cff 2c4c 0040 1bda 006c 40e4 fb3f
00000140: ba70 7bdd 7de9 f93f 90b6 966e b769 fa3f
00000150: 373b ad36 5a69 fa3f da53 1795 79f0 f63f
00000160: 9a68 46f5 8cf3 f43f 8404 d6bb 89eb f53f
00000170: 5c9a 1194 91c9 f93f ae6a a400 aca9 fa3f
00000180: adb4 d661 96a7 fb3f 4cbc a882 f66f f43f
00000190: 5b7b 9faa 42e3 f33f 83b4 102e 2e5f f73f
000001a0: 708d 19f2 19da f63f d16f 044e 5bc8 fa3f
000001b0: f70c 3c52 d880 f53f 8dcf 0946 cafb f53f
000001c0: 0681 9543 8bcc f23f deab 5626 fcf2 f23f
000001d0: c111 eedf 06e6 f23f 62c7 35f4 05e3 f23f
000001e0: 9426 ef2d f688 f23f d853 6122 948d f23f
000001f0: 4738 d2be 5e06 f63f 42bc 64d2 95be f53f
00000200: 0f3a 32a0 28fa f53f 2427 13b7 0a82 f53f
00000210: b0ab c953 5613 ff3f 9d42 531b 41ef fc3f
00000220: 3b1c 5da5 bbeb fe3f 8945 0c3b 8c19 0340
00000230: 365e 1503 7f33 0040 c740 43a4 4bc4 fc3f
00000240: 7ded f4de 73fb fc3f 45f5 d6c0 5629 fd3f
00000250: e82d 1ede 7360 0040 b35d a10f 9651 0140
00000260: 016d ab59 67bc 0040 5c1e 6b46 06b9 0040
00000270: d6cf f643 c729 f63f 4ec3 a684 1608 f03f
00000280: cf84 2689 2585 f33f f90a 1c1a 6070 f33f
00000290: 466f 021d f7b7 f73f 52d7 35b5 c726 f33f
000002a0: 58ec 8a74 9ae0 f03f b399 4352 0b45 f03f
000002b0: 0c21 a5e1 ad96 ef3f 4568 041b d73f f03f
000002c0: 3633 c026 e73b ec3f e04a 766c 0482 ee3f
000002d0: 87b4 d7cc 6b36 f23f 37f2 8af1 ab83 f33f
000002e0: 44a9 1842 2975 f73f 8de5 a782 9b16 f33f
000002f0: 72cd d36f 15fa f13f b87c 7fde af1d f23f
00000300: e77b fc94 19e5 f23f 50da c0c2 eee0 f43f
00000310: d4da 8f6f 4ad4 f43f 960c 5b0e 4faa f53f
00000320: 7d69 9b2c ff4b f63f 5237 610c f630 f63f
00000330: a289 6654 cf18 f53f e7cd 97cd d2e4 ff3f
00000340: 90ef f730 2030 0140 fd6c 3f74 9c56 fa3f
00000350: 986d a7ad 1191 0540 dfab b1df 6e24 fa3f
00000360: 4127 2955 47f3 f63f 64d7 ace9 30b5 fd3f
00000370: 1e8e 098c 50b7 0240 bd01 c177 f610 f83f
00000380: 6176 aad7 88bb f63f a3f6 6c67 a926 f63f
00000390: b339 73b4 4f2c f63f aeee dca4 3716 ef3f
000003a0: db79 d10d 030c f53f d58c b1b8 a48f ef3f
000003b0: 0784 ad44 664f ef3f 6065 23c6 2101 0440
000003c0: 7676 e8aa 2f91 0440 62ce 7d83 4088 0440
000003d0: 232c cf28 0201 fa3f 04e7 8c28 ed0d fc3f
000003e0: 78d5 03e6 2113 fe3f 0374 0415 fa95 0040
000003f0: 26a2 04a2 cc9b 0240 8b4e 965a ef97 0240
00000400: dd7b b8e4 b8d3 0240 54ac 1a84 b99d 0040
00000410: 331a f9bc e2b9 0040 48c7 3082 21a6 f43f
00000420: bd2c 3762 77ab f43f 1652 d90b 6085 f23f
00000430: f1e8 90e5 6e01 f53f fc33 283f 4e5d f53f
00000440: 4ac3 3a9f 4b82 f33f a20e 2bdc f251 f63f
00000450: 8d4f b7a2 8324 f83f 1ab8 4d02 e580 f43f
00000460: d080 7a33 6a3e f53f e07e 654a 90b6 f73f
00000470: 87e7 5bd5 48e1 fa3f 6621 f076 7367 fb3f
00000480: 5433 1070 ad3b f63f d4c3 865d ca7f 0040
00000490: 5575 45df 93dd fa3f 401c 7ffd 6bd4 fa3f
000004a0: b93f cd7f fe81 0040 e360 25d5 2de1 0040
000004b0: 6548 5f52 c6d9 0040 d30b e313 573a fc3f
000004c0: 393d 940d 1011 fb3f e062 ea53 3370 fb3f
000004d0: 2e3d 9aea c9fc f43f c0b1 67cf 65ca f33f
000004e0: f316 597c 54ad f53f b64c 86e3 f92c fa3f
000004f0: 090e 7915 63ca f93f 91c7 1d80 1e74 f93f
00000500: e38a 8ba3 72f3 fc3f 72d2 4554 f21b fd3f
00000510: 6b2b f697 dd13 fd3f 1d2c 5217 df06 fd3f
00000520: 8335 2960 9651 fd3f 97a8 8361 6559 fc3f
00000530: ecf8 2f10 0408 fc3f fd03 9b29 63d2 fa3f
00000540: ce67 e503 a743 fc3f b37a 87db a141 fc3f
00000550: 5f44 db31 75b7 fb3f 9682 24a2 4e6f f93f
00000560: b159 e48d 8276 f93f 83fc c79d 2d1b f93f
00000570: ac87 d459 d236 f93f 9736 1c96 067e f83f
00000580: 8252 59b9 bc1e f83f 4777 6bf4 c5f9 f83f
00000590: 5d00 755e beb0 f73f 3ada 2736 d589 f03f
000005a0: 2c25 7090 b56b f23f b3a8 99ff a1ea f13f
000005b0: 737a 83d4 92f3 f13f 91c4 8146 9fe5 fb3f
000005c0: d1c1 44cd a1d6 fc3f 5d66 7d6f 7886 fa3f
000005d0: 9281 f22d 620e f83f d2a3 4ee5 598e f83f
000005e0: 9e49 f663 ee55 f13f 4cf0 9760 82a4 f03f
000005f0: 50ce ab95 6438 f03f bbdf 579b b5fa 0140
00000600: c04e a03e b8b1 f73f 7897 303f dcfa ff3f
00000610: c4f9 e5dd a29d fe3f 2820 370d 9bf2 f93f
00000620: 2478 e860 a2e6 f93f 6db4 77a1 1428 fb3f
00000630: adce 7bad 959a fb3f ad34 2905 dd1e 0140
00000640: 95d4 0968 22ac f63f 9089 ef1f 662a f93f
00000650: 1aea 6635 13e2 f73f 31c2 ca57 b81b f73f
00000660: 57ab 1b94 d549 0440 c5c8 9239 9607 0440
00000670: 2464 7b88 a160 0040 148c ef30 9202 f83f
00000680: 242c 859b e7a3 f63f 1aa8 e738 1243 f93f
00000690: 565a 9077 58b2 fd3f c7ca 7910 4cbf fd3f
000006a0: 3ac9 5697 53a2 fd3f 92fa fc41 6eb0 fd3f
000006b0: b97e 0bfc f2f3 fd3f 081a d8cf 07d0 fa3f
000006c0: f033 2e1c 08e9 fa3f e72b 92c0 30ea fd3f
000006d0: c449 50b2 8b78 fd3f bcb0 355b 79a9 fe3f
000006e0: df72 501d 06ae fa3f 3214 c149 e48c fa3f
000006f0: a67b 9dd4 97a5 fc3f 2a8d 98d9 e7d1 f33f
00000700: a857 ca32 c471 f43f 5baa 1ca4 f1d5 f43f
00000710: d502 2093 31c3 f33f 4dc5 2176 017a 0140
00000720: 5a0d 2ec2 b9eb fc3f 7962 8cfe 86df f53f
00000730: cb22 5ee8 5bd0 f63f f756 c96c 3530 f73f
00000740: fb33 cd85 db4b fe3f 346c efae 0e5b fe3f
00000750: 3ab5 8e05 e09a 0040 b75b 374a 0344 ff3f
00000760: aa8b ca3c a83a 0040 54e9 8255 504c f93f
00000770: 26c3 96c3 9362 fb3f 43ba 8e27 384b fb3f
00000780: aebb 79aa 436e f93f 325a a20e 8695 f73f
00000790: 46a1 1b50 25b9 f43f dd46 5e31 7e75 f13f
000007a0: db87 bce5 ea87 f13f 3477 3e4d 77e8 f13f
000007b0: f7a4 5d96 c097 f73f 1c94 d519 849e f43f
000007c0: 4277 499c 15d1 fe3f ee3e c747 8bb3 fb3f
000007d0: 255d 8eb2 d96c f53f 01ed 58b6 2085 f63f
000007e0: 10e3 daf5 779b f83f 61bb 20c7 7b1a ff3f
000007f0: deaa eb50 4da9 fa3f e431 5e4e 6421 ff3f
1.2483252 1.3550475 1.3534094 1.2495537 1.4994043 1.4243251 1.3165259 1.2134055
1.441985 1.3368624 1.2331115 1.4188947 1.3219829 1.4044636 2.084101 2.3003999
2.6577344 1.4689651 1.1641113 1.1401606 1.1025999 1.1366297 1.1745718 1.253524
1.2029066 1.1838519 1.0107105 1.0324513 1.0644667 1.0639463 0.90783926 0.88364833
1.0357527 1.3925977 1.8728617 1.5010491 1.8956655 2.0222849 2.0371952 1.7432255
1.6195048 1.6508097 1.6507208 1.4337097 1.3094606 1.3700044 1.6117111 1.6664238
1.7284149 1.2773347 1.2429835 1.4607374 1.4282474 1.6739152 1.3439563 1.3739722
1.1749375 1.1843225 1.1811589 1.1804256 1.1584379 1.1595651 1.3765552 1.3590296
1.3735739 1.3442485 1.942221 1.8084117 1.932552 2.3874745 2.0251446 1.7979237
1.8113898 1.8225925 2.047096 2.164837 2.091994 2.090344 1.3851998 1.0019746
1.2200065 1.2149354 1.4824134 1.1969678 1.0548348 1.0168565 0.98714346 1.015586
0.88231237 0.95337125 1.1382864 1.2196464 1.4661038 1.1930194 1.1235556 1.1322478
1.1809326 1.3049152 1.3018288 1.3540793 1.3935539 1.3869534 1.3185571 1.9933651
2.1484989 1.6461453 2.6958345 1.6338948 1.4343942 1.8567361 2.3395091 1.5041413
1.4207848 1.3844389 1.3858182 0.97146208 1.3154326 0.9862846 0.97844232 2.5005527
2.5708917 2.5665293 1.6252462 1.7534 1.879671 2.0732309 2.3260739 2.324187
2.35338 2.077014 2.0907645 1.2905593 1.2918619 1.1575623 1.3128499 1.3352797
1.2193104 1.395007 1.5089146 1.2814684 1.327738 1.4820712 1.6800011 1.7127566
1.3895697 2.0623977 1.6790961 1.6768608 2.0634737 2.1099507 2.1063353 1.7642432
1.6916657 1.7148927 1.311716 1.2369135 1.3548169 1.6359805 1.6119109 1.5908494
1.8094355 1.8193229 1.81735 1.8141776 1.8324188 1.7718252 1.751957 1.6763641
1.7665167 1.7660235 1.7322895 1.5896746 1.5914331 1.5691353 1.5758842 1.530768
1.5075042 1.5609798 1.4806503 1.0336506 1.1512962 1.1197834 1.1219662 1.7435601
1.8024004 1.6578297 1.5035116 1.5347537 1.0834793 1.0401634 1.0137678 2.2474167
1.4808886 1.9987452 1.9134854 1.6217299 1.6188072 1.6972853 1.7252404 2.14007
1.417025 1.5728513 1.4926941 1.4442676 2.5360519 2.5037045 2.0471831 1.5006277
1.4150158 1.5788748 1.8560414 1.8592034 1.8521305 1.8555739 1.8720579 1.6757887
1.6818925 1.8696754 1.8419301 1.9163755 1.6674863 1.6593974 1.790428 1.2387465
1.277775 1.3022324 1.2351547 2.1845731 1.8075502 1.3670721 1.4258689 1.4492697
1.8935199 1.8972308 2.0756226 1.9541047 2.0286412 1.5811313 1.7115667 1.7058641
1.58942 1.4740048 1.2952016 1.0911848 1.095683 1.1192544 1.4745489 1.2887002
1.926046 1.731334 1.3390748 1.4075019 1.5379562 1.9439657 1.6663335 1.9456523

b_posterior f8 [4000]
00000000: dbe8 5212 c84b 1740 ebb5 8fcb 6edc 1840
00000010: aefb 7db5 59db 1840 9b9b 25b7 dc07 1940
00000020: b76f ffdb 765b 1640 c290 3067 1135 1740
00000030: d382 bcc3 921f 1740 f79d 1507 86c2 1840
00000040: 3b89 08ff 2290 1540 7c26 fbe7 69c8 1740
00000050: 0410 2d68 108d 1740 03fe 3a81 fab8 1640
00000060: 51ac 0958 6101 1740 e448 0ca7 715c 1640
00000070: f42d 1801 babc 1340 8ce2 0b49 1c20 1340
00000080: 104c 7f40 b1ff 1140 0a27 0e45 2675 1640
00000090: e6ff fa8d 1bbb 1940 7099 d365 31a1 1940
000000a0: ddb9 8b8b fe1b 1a40 86c7 7e16 4b21 1a40
000000b0: c595 0e31 b944 1640 03d1 9332 a9b1 1640
000000c0: dab2 d716 f928 1740 abab a7fb a5c2 1640
000000d0: 5f73 b3e4 96a3 1840 e9cf 23eb 1593 1840
000000e0: ec5e 3821 bedd 1740 e485 7478 08db 1740
000000f0: d218 52ea 3780 1a40 499e ebfb 7048 1a40
00000100: 4aee b089 ccb4 1940 1786 23a3 5e9b 1740
00000110: 5fe6 e03e 17ca 1340 f0c4 ac17 43c9 1440
00000120: 6610 1fd8 f147 1340 df76 572c 342e 1340
00000130: abbf 14d4 a608 1340 d0fb b5ab 46e5 1440
00000140: 3c61 2e4e 217c 1540 5286 0552 bd78 1540
00000150: e709 3a10 4870 1540 ba88 4a7e 1f21 1640
00000160: 0fc7 0446 a883 1640 0de7 751f dbb5 1640
00000170: 4a13 a573 3475 1440 1d50 db2b 98ad 1440
00000180: 1436 4de9 aa42 1440 31fd 5c7e f16e 1740
00000190: 94d8 5a04 6b51 1740 af0e db71 1ee9 1540
000001a0: b1e0 7ec0 03f3 1540 7fb7 8a0f fde4 1340
000001b0: eb03 24f5 f99b 1740 a4cd 27e1 f800 1740
000001c0: 42c9 891b 5c37 1940 d3ee a18e d858 1840
000001d0: f099 362d c286 1740 ec87 d860 e1dc 1740
000001e0: 577b d80b 05ac 1740 1ec6 a4bf 97e2 1740
000001f0: 43e3 8920 ce63 1640 5b61 5518 b609 1640
00000200: 2cae 3b27 0725 1640 e9d3 2afa 4333 1640
00000210: 3bf0 7be5 8bef 1440 8066 6bd8 4af3 1440
00000220: 38cf 2225 8781 1440 5d8b 16a0 6d5d 1340
00000230: 2b42 fba2 4e42 1440 8d31 6601 c9da 1440
00000240: 629c 6450 12c7 1440 9703 988d 29db 1440
00000250: 8ff8 bab1 4537 1440 3370 404b 5718 1340
00000260: e907 1ad8 cf27 1440 8828 cbb5 0d28 1440
00000270: bfe2 ba73 7270 1540 8d94 d2d8 035a 1940
00000280: d0b6 9a75 c69f 1540 283e 88ae 55a4 1540
00000290: 270a 3e17 5716 1440 ebfa aa01 ef41 1640
000002a0: f72c be57 63f7 1840 3bfb 6fca 81eb 1840
000002b0: 72e2 06d7 37fb 1840 c122 1a38 fb56 1940
000002c0: 4e8b 0b51 cfe4 1940 2888 15c9 b2cb 1940
000002d0: 2e61 23ff 820b 1940 e805 e973 ffaa 1740
000002e0: fb4b 416d 0a0a 1640 57ed 9a90 d640 1840
000002f0: f83b 6fbe 6cc6 1740 41d1 e1c6 d2c4 1740
00000300: 6d07 7eaf 7c09 1840 be5f 1624 c7ef 1640
00000310: 4b99 2f8a 7909 1640 6b4e b91d 75ef 1540
00000320: eeb0 89cc 5c48 1640 c68b e0da e4f3 1540
00000330: 61bd f671 d985 1640 fc93 5396 7caf 1340
00000340: 667d 6f78 e61a 1340 f730 c566 918f 1540
00000350: 95ee 53fa ae4d 1240 cd7c 62f8 e301 1540
00000360: 182f ccf8 ad7c 1540 80dd 9f41 f9e1 1440
00000370: aaaa e16c 842f 1340 69e9 656f 84e0 1540
00000380: 3a7f c97c f67a 1740 e9e1 ba18 b90d 1740
00000390: b604 2a2d 6d02 1740 cdc9 8b4c c06f 1a40
000003a0: 1b3d c8fc ede4 1540 8332 8d26 1793 1840
000003b0: bc2d 477e b37b 1940 7e53 58a9 a04a 1340
000003c0: a183 2ee1 d053 1240 95fa 6827 394e 1240
000003d0: b3da b232 d063 1540 d580 9c8b 1a87 1440
000003e0: 0ad6 dde1 1bbf 1440 d7f6 764b 7240 1340
000003f0: 71cc b227 818d 1240 00e6 b56d 73a6 1240
00000400: 504b 1872 11f4 1240 dbeb 9392 d418 1340
00000410: 256b 1ed1 4e4f 1340 589c 20a0 b15d 1840
00000420: 327d 0adb aa57 1840 b230 9f07 d200 1940
00000430: 445f 8b27 cc55 1840 2a95 4b3e d138 1740
00000440: a845 3305 217f 1740 8aad a069 896d 1640
00000450: 6649 809a 5a1e 1740 d552 8a67 1a16 1640
00000460: 5e2f 4d11 e0d4 1540 5ae6 bee6 66a1 1540
00000470: 24d2 36fe 440d 1440 a0d6 7e7c 534a 1440
00000480: a712 5443 d15a 1540 107a 36ab 3e87 1440
00000490: d9f9 c8f7 d699 1440 bd0d 2032 9b9e 1440
000004a0: 352a 70b2 0d24 1340 83d0 8b24 8b4d 1340
000004b0: d520 cced 5e46 1340 6504 aff1 f43d 1440
000004c0: 0ed6 a480 590e 1540 3188 febf a0c3 1440
000004d0: 9f27 f96c 7875 1640 8e0d 935f f5a6 1640
000004e0: 7fc9 7cf6 1249 1640 0c97 b091 7f79 1540
000004f0: b7eb 4a70 8fb2 1440 b140 aa17 3295 1440
00000500: 38a3 4165 57d5 1440 8848 4dbb 981e 1540
00000510: b7ab a11e ec1e 1540 7431 bc48 575f 1440
00000520: ac56 26fc 529f 1440 5b24 ed46 1f63 1440
00000530: c6d5 6df5 4163 1440 5d1a 1aaa bd33 1440
00000540: a78e fa90 5c7b 1440 47d3 8f3c c68b 1440
00000550: f881 f5c9 9bcd 1440 6790 cc34 ab70 1540
00000560: d3bc 885b aa47 1540 9f30 7260 83d7 1540
00000570: 1cb7 989f 1b62 1640 d200 de02 094a 1640
00000580: f27e 3738 6cbe 1640 d8af 856a 94d7 1540
00000590: 1a8e 42ed 1268 1540 4dcf 053f bb4d 1940
000005a0: b18b a207 3ede 1840 727d 699b 2cc7 1840
000005b0: 35be 8ae7 c782 1840 5369 7a3f 24fa 1340
000005c0: 52cd 51ec 0de3 1440 4622 d9c8 1ab2 1440
000005d0: 3c51 6dcb db54 1540 880e 266a 0e75 1540
000005e0: 4762 388d a380 1940 7cf9 f8df a52f 1940
000005f0: 9b92 077d 4487 1940 5011 f120 870a 1340
00000600: b453 1800 4f1f 1640 fb57 569a 94ca 1340
00000610: 4665 1e54 3d84 1340 7fa4 880c ab50 1440
00000620: 0a0d 69f9 2682 1440 62c5 0490 35b6 1440
00000630: 1601 a9a8 55af 1440 d557 fc4b f7df 1340
00000640: 804c c68c 4b70 1540 73ec ea9f f1b6 1540
00000650: ab4e bd24 84e5 1540 04a2 71f2 6c60 1540
00000660: d023 eb15 bb92 1340 cecd ed14 61c1 1240
00000670: 00e3 1934 f44f 1440 a5f9 635a 9bbe 1540
00000680: 8102 942b 617a 1540 b2a4 3737 0141 1540
00000690: 2ac8 cf46 ae0b 1540 1c6e d113 e08d 1440
000006a0: 6a33 4e43 5491 1440 49fd 50c4 7dcf 1440
000006b0: ab98 a5f8 53be 1340 128e 0f69 0abb 1440
000006c0: c88a 2b78 1bc5 1440 57fa 1a93 0f8b 1440
000006d0: cbee 6e0a d043 1440 02f0 4fa9 129d 1440
000006e0: 3485 ce6b ec42 1440 861b 9540 ef4a 1440
000006f0: 26b4 9bcf 6f3e 1440 7830 bd58 73d3 1740
00000700: 63b7 cf2a 3335 1740 878d 0d38 a652 1740
00000710: 0d0f ab89 4f1b 1840 c833 1e5b 85d3 1240
00000720: 6a41 391b 3cdd 1440 4c3f 975f bc15 1740
00000730: a785 dc56 c49a 1440 980e 42e5 0402 1540
00000740: f9cf e4ac 99ce 1340 1dc7 0f95 461c 1440
00000750: 6a92 0ec5 d379 1340 ec5c 07bd ed68 1440
00000760: 3211 80c9 d75f 1440 4924 1b59 4363 1540
00000770: 816c a34b 4928 1540 da70 581a f849 1540
00000780: e263 6655 3a7e 1640 c2a1 b778 782f 1740
00000790: bea5 f7e8 68a8 1540 4cf9 b59a 1add 1840
000007a0: 3134 8ddc 89b0 1940 8bbb 8b41 7191 1940
000007b0: b712 1505 5566 1540 8e45 894c afa3 1640
000007c0: 9995 928a 6ba9 1340 7b2c 222f 1039 1540
000007d0: 3e1c c98a 86a9 1640 ec48 9ae4 ec62 1640
000007e0: 3344 5f8b 27dc 1540 9854 c8f0 3361 1340
000007f0: 0898 54c8 f0bb 1440 6875 17cd 6fad 1340
5.8240054 6.2152664 6.2142094 6.2576779 5.5893206 5.8018242 5.7808333 6.1899644
5.3907585 5.9457165 5.8877579 5.6806431 5.7513479 5.5902773 4.9343033 4.7813579
4.4996996 5.6144038 6.4327223 6.407415 6.5273382 6.532513 5.5671127 5.673497
5.7900127 5.6900863 6.1597553 6.1436383 5.9665456 5.9638995 6.6252133 6.5707435
6.4265615 5.9017282 4.9473543 5.196545 4.8202585 4.7951209 4.7584489 5.2239024
5.3712208 5.3679097 5.3596499 5.5323467 5.6285716 5.6775937 5.1144579 5.1695258
5.0651051 5.8583431 5.8295098 5.4776552 5.487319 4.9736216 5.9023207 5.7509494
6.3040623 6.0867636 5.8816001 5.9657035 5.917988 5.971282 5.597466 5.5094837
5.5361601 5.550064 5.2339321 5.2375902 5.1264921 4.8412385 5.0647531 5.2136574
5.1944058 5.2140257 5.0539768 4.7737705 5.0388788 5.0391148 5.3598116 6.3379053
5.4060305 5.4104831 5.0218166 5.5643883 6.2415899 6.2299873 6.2453302 6.3349427
6.4734471 6.4489242 6.2612419 5.9169901 5.5098054 6.0633185 5.9437742 5.9422103
6.0092647 5.7341581 5.5092527 5.4838452 5.5706665 5.4881777 5.6307123 4.9213737
4.7762698 5.3902031 4.5758628 5.2518462 5.3717574 5.2206774 4.7964036 5.4692552
5.8700809 5.7634014 5.7523696 6.609132 5.4735641 6.143643 6.3708019 4.8228785
4.5818515 4.5763899 5.3474739 5.1319372 5.1866298 4.812936 4.638188 4.6625497
4.7383478 4.7742484 4.8274491 6.0914979 6.0856127 6.2508012 6.0837866 5.8054857
5.8741494 5.6069695 5.7796425 5.5215851 5.457886 5.4076191 5.0129585 5.0725841
5.3386889 5.132075 5.1502341 5.1548889 4.7852085 4.8257261 4.8187215 5.0605047
5.2640133 5.1910429 5.6147172 5.6630454 5.5713614 5.3686507 5.1743753 5.1456989
5.2083412 5.2798795 5.2801976 5.0931064 5.15559 5.096799 5.0969313 5.0505282
5.1204703 5.1364984 5.2007896 5.3600281 5.3199858 5.4604621 5.5958085 5.5723
5.6859597 5.4605271 5.3516347 6.3259096 6.2170335 6.1945061 6.1277157 4.9942789
5.2217328 5.1739303 5.3328697 5.3643128 6.3756239 6.2965312 6.3820972 4.7602811
5.5305748 4.9478325 4.8791402 5.0787775 5.1271018 5.1779387 5.1712252 4.9687168
5.3596632 5.4286561 5.4741369 5.3441656 4.8932918 4.6888469 5.07808 5.4361395
5.3695113 5.3134812 5.261407 5.1385501 5.141923 5.2026282 4.9358672 5.1826569
5.1924876 5.1358016 5.0662233 5.1533915 5.065355 5.0731783 5.0609734 5.9564947
5.801953 5.8307122 6.0266706 4.7065634 5.2160496 5.7712264 5.1511396 5.2519718
4.9517581 5.027613 4.8689719 5.1024694 5.0935966 5.3469366 5.2893421 5.3222355
5.6232694 5.796358 5.4144627 6.2159218 6.4224009 6.3920336 5.3499337 5.6598484
4.9154493 5.3057258 5.6655523 5.5966068 5.4649946 4.8449247 5.1835357 4.9193718

g_posterior f8 [4000]
00000000: 95e8 7640 2342 e7bf 0408 9b11 10d9 d0bf
00000010: d558 4613 bd46 dabf ed65 ba5b 8221 dbbf
00000020: b61d 09ea 4afa d5bf 98d8 42b1 917b e6bf
00000030: eae9 44fe 7022 e6bf f55d 3a7b a19f e6bf
00000040: 9520 0a03 22c6 ecbf 9493 bb95 46a8 ebbf
00000050: bf79 5845 0b92 eabf f837 89bd 27c1 e9bf
00000060: 4614 6ab8 8ef2 e6bf d306 712f 7ad8 e8bf
00000070: c860 627f 1bda c93f b8c0 504d 6a64 d83f
00000080: f0f5 f74a 0788 c03f a531 5a47 55d3 e2bf
00000090: bc93 4f8f 6df9 f0bf 9525 df11 ba70 f0bf
000000a0: ccc5 2984 1fc6 efbf 914b 7732 9323 f2bf
000000b0: c513 8b29 a210 f3bf e2de a1cd 16d5 f4bf
000000c0: ae8d 6786 43a5 f5bf b6f8 6fb9 55cb f2bf
000000d0: d400 ef2e 613e fcbf 53f4 763a 46a8 fdbf
000000e0: 6f46 cd57 c927 febf d726 5f1a d01c febf
000000f0: a307 99bf 9d0f 04c0 f6fa 496b c29c 03c0
00000100: c9cf a167 0ee4 fdbf 59a2 5813 b0c2 e2bf
00000110: f120 a8e0 1151 dabf 1344 1f24 f25a e6bf
00000120: 394b 453a 6e3e c2bf 00b9 e39e c58a a53f
00000130: 94ed 2a41 d2e9 bdbf 84b3 633c ad4f c7bf
00000140: e1ea 84c0 5f46 d4bf 97d5 8569 292a d5bf
00000150: 3e7f 3562 c1d8 d4bf 45ee 2b07 616b e2bf
00000160: 133b 4306 2c98 e9bf 446c d17e 7b89 ebbf
00000170: 78be fad3 a12e d1bf e4e0 cac0 9e02 dcbf
00000180: a796 29bd a136 dabf ece5 d253 3f2a efbf
00000190: 8804 7c4c de1f ecbf 71ca 7952 68d1 e0bf
000001a0: 7dc4 d8d7 f4df e6bf ef40 f8ab 5b18 e4bf
000001b0: 36a2 c563 50d7 e0bf fc68 40d6 b675 e4bf
000001c0: adea 17b2 dbc3 ebbf e615 99ca ec3d f3bf
000001d0: dfef 6140 4008 f6bf f5ad 2017 e66e f5bf
000001e0: 3c99 243b db08 f6bf b3d9 eca3 aef0 f5bf
000001f0: 3505 b673 2fca e8bf dbaf f14f 5fe5 edbf
00000200: 11c2 69e2 99e7 eebf 12fb 0450 8c2c f1bf
00000210: 3f4c caf6 8499 cd3f cea2 6b6e 223d 823f
00000220: 2964 5152 0c82 b83f 5766 6388 1015 db3f
00000230: 44cf da2b fbc7 c13f e730 04a5 0d2c 7c3f
00000240: b5a1 a4b8 914f 95bf e789 66ec ebc3 8d3f
00000250: 5db2 2251 056f d03f ee57 c712 520e c03f
00000260: 10be 53a8 3ef5 a23f 42f2 4a69 68c9 af3f
00000270: 3806 ae3c 929c f3bf 2f82 6b93 2f6d fdbf
00000280: 10b3 976d a76d f9bf 159a da08 7a5e f9bf
00000290: fdda fae9 3f2b f8bf 179c c1df 2f26 fbbf
000002a0: bb93 f4d5 faa7 fabf af5c 6f9b a9f0 febf
000002b0: ddde 7f75 662c ffbf d399 c5d5 121c 00c0
000002c0: d04d f62a 8dd3 05c0 8acb f10a 446f 02c0
000002d0: e264 d12a e9b7 f2bf 7665 6199 c896 f2bf
000002e0: f7b2 ab98 63fc e5bf 59e3 85d7 a2e3 eebf
000002f0: 3e35 451d a940 eabf c85f 39c6 3e56 ebbf
00000300: 318a 0e16 887d eebf da37 f757 8f9b e5bf
00000310: 8ba4 1f05 3644 edbf d7bb e424 3905 f1bf
00000320: 22e6 2f80 329e e9bf 2509 3edd abfc e8bf
00000330: 6908 22e6 ede3 ecbf 35a3 12e3 a44c a23f
00000340: d41d 8e25 e17f 973f a5c6 be43 d558 d2bf
00000350: 9213 dcfe 4b08 d43f b24e ae8c ba54 d8bf
00000360: f066 b224 e573 eebf b4e7 9fd1 3718 933f
00000370: c84e 7098 05e6 ce3f e592 b25e 6fcf dabf
00000380: e8e6 346e de36 d1bf 4969 9148 3632 d4bf
00000390: cc11 cf65 ac2e d3bf 0a5b fd22 b2f9 f6bf
000003a0: b7e7 9e1a d463 f2bf 1321 bfc8 1578 01c0
000003b0: 9aee d00b d287 02c0 c1db 2857 1d1e dc3f
000003c0: 8231 09b4 c7cd cd3f b3d9 cb95 c5ed cd3f
000003d0: db94 0caf 0d5d b3bf 8978 dcd1 ae2b 98bf
000003e0: 8dbf 15d2 dfa0 b6bf 8e98 55af 8d3e 913f
000003f0: 06be a25b afe9 c13f f968 92d4 19ca c23f
00000400: 7b66 16d8 1425 78bf 4c9e ba0b f7be c53f
00000410: 0655 5e83 a21f b43f e40e fef2 872e e8bf
00000420: 0ab9 94eb 54d6 e7bf 4b34 ed07 e136 edbf
00000430: 19f1 f0e0 1fbd e0bf d8f8 6593 709f d8bf
00000440: dadf c081 1c76 e5bf 94fc 0427 0dbb d8bf
00000450: fb2b 7d4b adf5 d9bf c309 8ec3 4761 eebf
00000460: 0669 6378 2e44 ebbf 8130 8541 78b8 efbf
00000470: d328 4d18 0736 d5bf 584f d63d ec24 dabf
00000480: 6ead e584 bff5 f0bf 4b03 fd8d 8f79 d23f
00000490: 5e52 ce7a a5ea ccbf 53f2 e2ab ba9a ccbf
000004a0: e61e e73d 9b43 9e3f f14a 7b4b 85ed 9dbf
000004b0: 4307 4626 2c66 a8bf 933d 9d86 03bc d9bf
000004c0: 1062 a1b5 2686 d8bf 841c c66a 148e c7bf
000004d0: 1b27 2ac0 1c42 f3bf 0e82 339d 4273 f1bf
000004e0: 57fa 1a93 0f4b f1bf 8f0e 59ee 1612 c2bf
000004f0: 4cb6 cbc8 6a04 e7bf f96f da63 541f e6bf
00000500: b3cc e868 d112 bcbf d8a0 6968 87e8 b9bf
00000510: 1a35 8033 08de babf 3562 2483 f5e2 ccbf
00000520: 1f18 7aa3 dad0 c8bf a83b ec11 aca2 c9bf
00000530: e57b 2514 4bdf c9bf a34d 40d9 b539 c3bf
00000540: c985 144d b1b4 c9bf ee10 b523 8b6a c6bf
00000550: ae4a 7db4 93dc dbbf 8595 e91b c15b cbbf
00000560: b63c c560 b43d d0bf 7443 3268 111f cebf
00000570: d148 3ab9 9594 c8bf e315 2de5 2178 c5bf
00000580: 760d 656e dfdf d1bf 31ae 7e8d a008 d5bf
00000590: 8de6 1258 4aa0 e6bf ab8c eb84 3c87 f6bf
000005a0: 7dec 2e50 5280 f4bf c4b4 6fee afbe f2bf
000005b0: a603 fe95 3a0d f2bf b964 0386 3858 ddbf
000005c0: 0b7a 190c 48d7 aabf b858 0f67 9712 d2bf
000005d0: 582c b08d 9920 e5bf b4b3 4357 7da9 e8bf
000005e0: 8c51 3294 6ec6 f9bf dbc6 fa61 dfa9 f9bf
000005f0: 781a 7ad5 1452 febf 6865 142e 5868 c43f
00000600: d0fa 29c8 ae18 e4bf 4fe3 8343 1438 bebf
00000610: a8e1 193c 6598 a3bf 8e2b 050f 99d3 dcbf
00000620: 86e3 1a1b 913a e4bf c509 021a 5bbe d5bf
00000630: fd73 a811 c0ae d9bf e9c9 e306 cfc6 ce3f
00000640: e089 51be 3ddb e9bf 7a37 f505 1d82 d9bf
00000650: 319c c651 14a3 e3bf b3af 7e64 2137 e4bf
00000660: bbb4 02bf 1d13 db3f 255c a715 cfee da3f
00000670: f151 774c 7aeb d93f 176e 33f4 d368 e8bf
00000680: 463d 86bf 0d2e e8bf 4633 e412 2610 ccbf
00000690: d6e3 5bab 7f08 bebf f0ec 5d49 136b c5bf
000006a0: 37fe 4465 c31a c0bf 9c77 3107 2039 c2bf
000006b0: c06a fa26 2c75 ccbf 49a4 a7a7 13f9 cdbf
000006c0: 77dd f866 dd37 cbbf fe25 2d85 d592 c5bf
000006d0: 4c7f a3db 1a2a ba3f 40fe 0c4e c8f7 cc3f
000006e0: 3171 b391 4ed1 e2bf f72f bdbb 9d36 e3bf
000006f0: bbe0 a162 7bb1 cabf 7483 fcc7 9dcd f0bf
00000700: 2a44 7694 392c ecbf bad0 8526 c330 e9bf
00000710: 4e01 9b39 45e3 ebbf c41e 74ef 0991 f4be
00000720: b31e 4285 b8ac a93f 3680 d0dd 22ae dbbf
00000730: 3f42 8303 108d f5bf 6433 8f15 5f01 ecbf
00000740: 38b1 f291 b502 bdbf 20a5 0a2d 88d4 c0bf
00000750: 16ac 8ad3 bd8c c13f 11cf 2648 ebf6 ab3f
00000760: e03c baa8 0d7b 7f3f 1b62 1f11 1146 debf
00000770: 8af9 4fbd 89af abbf 32bb 759e 7b86 713f
00000780: f6ea 6221 da91 ae3f 2d2e 232f 4a54 d6bf
00000790: d8d3 0e7f 4df6 f5bf f1e8 90e5 6e81 f9bf
000007a0: c672 a664 94c2 f6bf 5e7b 0b90 0d89 f0bf
000007b0: 6e5a 42a1 12d5 ebbf db2d 6e48 4829 eebf
000007c0: 3aee 31e4 1a57 d1bf e19a 9344 6327 803f
000007d0: 34c1 ec75 bd1a e9bf 3e7e 6762 5786 e8bf
000007e0: 2d4b 6c25 11ed d3bf 8f72 309b 0043 c0bf
000007f0: 0f3c e73c 9d8a d2bf 2839 8dd8 1a56 a5bf
-0.72682345 -0.26324846 -0.41056754 -0.42392024 -0.34340165 -0.70258412 -0.69170427 -0.70698618
-0.89918614 -0.86429147 -0.83032764 -0.80482852 -0.71710907 -0.77642545 0.20196861 0.38112886
0.12915126 -0.5882975 -1.0608955 -1.0275212 -0.99293495 -1.1336853 -1.1915609 -1.3020237
-1.3528476 -1.1746423 -1.7652294 -1.8535826 -1.8847135 -1.8820344 -2.5076251 -2.4515427
-1.8681778 -0.5862656 -0.41119811 -0.69860179 -0.14253023 0.042074371 -0.11684908 -0.18211904
-0.31679529 -0.33069835 -0.3257297 -0.57560779 -0.79982568 -0.86053252 -0.2684712 -0.43765992
-0.40958446 -0.97390715 -0.87889018 -0.52556244 -0.71483843 -0.6279734 -0.52628345 -0.63936941
-0.86765847 -1.2026184 -1.3770144 -1.3395749 -1.3771622 -1.3712603 -0.77468083 -0.93424955
-0.96577162 -1.073376 0.23124754 0.0089056673 0.095734377 0.42316068 0.13891544 0.00687795
-0.020811345 0.014533847 0.25677617 0.12543703 0.037027319 0.062083495 -1.2257254 -1.8391567
-1.589271 -1.5855656 -1.510559 -1.696823 -1.6660107 -1.9337555 -1.9483399 -2.0137078
-2.7282966 -2.304329 -1.1699001 -1.1618124 -0.68705921 -0.96528761 -0.82039314 -0.85427798
-0.95282368 -0.67523925 -0.91457654 -1.0637752 -0.80056119 -0.78084367 -0.9028234 0.035740998
0.022948759 -0.28667194 0.3130064 -0.38017143 -0.95164735 0.018647072 0.24139471 -0.41891083
-0.26897393 -0.3155647 -0.29972372 -1.4359609 -1.1493722 -2.1836353 -2.3163186 0.43933805
0.23284241 0.23381872 -0.075638633 -0.023604137 -0.088392247 0.016840185 0.139944 0.14679263
-0.0058947386 0.16989029 0.078607709 -0.75568006 -0.74491354 -0.9129491 -0.52308649 -0.38473143
-0.67066789 -0.38641671 -0.40561993 -0.94937504 -0.85207294 -0.99126828 -0.33142259 -0.40850359
-1.0599971 0.28866948 -0.22591084 -0.22347196 0.029554773 -0.029226382 -0.047654514 -0.40210045
-0.38318794 -0.18402343 -1.2036407 -1.0906397 -1.0808254 -0.14117705 -0.7192892 -0.69132442
-0.10966214 -0.10120436 -0.10495044 -0.22567624 -0.19387372 -0.20027686 -0.20212687 -0.15019868
-0.2008268 -0.17512645 -0.43533795 -0.21373762 -0.25376615 -0.23532312 -0.19203445 -0.16772865
-0.27928911 -0.32865156 -0.7070667 -1.4080167 -1.2813285 -1.1715545 -1.1282297 -0.45850957
-0.052423717 -0.28238473 -0.66022947 -0.77068965 -1.6109453 -1.6039728 -1.8950394 0.15943434
-0.62801303 -0.1180432 -0.03827206 -0.45041491 -0.63214927 -0.3397434 -0.40129091 0.24044216
-0.80801284 -0.39856649 -0.61365715 -0.63172979 0.42304176 0.42082574 0.40499742 -0.76279638
-0.75562179 -0.21924282 -0.11731718 -0.16733018 -0.12581675 -0.14236832 -0.22232582 -0.23416372
-0.21264236 -0.16854352 0.10220497 0.22631172 -0.58805016 -0.60041701 -0.20854132 -1.0501993
-0.88039855 -0.78720243 -0.87149297 -1.9613798e-05 0.05014588 -0.43250343 -1.3469391 -0.87516741
-0.11332259 -0.13148596 0.13710759 0.054618218 0.0076857122 -0.47302653 -0.054073624 0.0042786435
0.059706513 -0.34889464 -1.3726325 -1.5940999 -1.4225048 -1.0334602 -0.86975986 -0.94253935
-0.27094147 0.0078876262 -0.78451417 -0.76639909 -0.31134442 -0.12704475 -0.28971034 -0.041672553

log10rhoS_posterior f8 [4000]
00000000: 35bb 4967 bbdd 1740 d71a a5a6 b835 1640
00000010: b6d2 10fa 3ea1 1640 f59c f4be f115 1740
00000020: 6c8b 7ca8 7e17 1640 a599 93bc df0d 1740
00000030: 2c61 6d8c 9d78 1740 d1fa a58f 0ae5 1740
00000040: a401 17bf 847d 1740 f4c0 c760 c5c1 1740
00000050: 362c fccf 5032 1840 f096 9af3 4258 1740
00000060: 9f58 a7ca f794 1740 bff9 c385 f244 1740
00000070: 8900 f104 0c2c 1440 0c14 c2b4 b9db 1340
00000080: d94a 9ea1 6efe 1340 8141 d2a7 55f4 1640
00000090: 3079 a812 0a1e 1940 f28c c756 e118 1940
000000a0: a668 4018 d34f 1940 aecd 10d8 e630 1940
000000b0: fef2 c98a e142 1940 989a 4efc 6228 1940
000000c0: 50c1 864c 9e6f 1940 f5e5 bb4a 2d42 1940
000000d0: 438b 112e 89e8 1b40 5b5e b9de 36b3 1b40
000000e0: 63d5 7b85 6088 1b40 da70 581a f889 1b40
000000f0: 786e 90ff b8ab 1e40 b5b4 649f 11de 1e40
00000100: 46dc 52bd ebd2 1b40 2cc3 6e8e 29e6 1640
00000110: 02d4 d4b2 b5a6 1540 6a18 99db 18ee 1640
00000120: 2408 fc86 2e25 1540 6ebe 11dd b3de 1440
00000130: 2d66 3a2a ed03 1540 126f f838 2e56 1540
00000140: 02a9 030f c2da 1540 d171 daf8 b8cb 1540
00000150: 2dfe 00b5 62d9 1540 e508 be0e 41e2 1640
00000160: 9a32 26b3 30ca 1740 02c8 1a3f 9eaf 1740
00000170: a79c 8aaf d1e5 1540 f449 93f7 1603 1640
00000180: 9276 a38f f9e0 1540 9666 a9ab f148 1840
00000190: 8bdd 3eab cc34 1840 b0ff 3a37 6dbe 1640
000001a0: e8d4 3a16 8023 1740 7514 3136 be78 1640
000001b0: a11e 91a5 c507 1740 6d56 7dae b62a 1740
000001c0: e641 d543 8f8b 1840 0a86 730d 332c 1940
000001d0: e410 7173 2a91 1940 76bb a827 3dad 1940
000001e0: c6c4 419d 4db2 1940 f141 74ad 62be 1940
000001f0: d4e7 b4b8 107d 1740 b188 6187 31e1 1740
00000200: b8f6 f4c7 6ae1 1740 85e7 4aa9 f034 1840
00000210: e23c 9cc0 743a 1440 0e07 53de d8f5 1440
00000220: 83ff 081e 3a78 1440 8f2c aa8f d1ab 1340
00000230: 8631 337d c06d 1440 a08d b7f0 17ee 1440
00000240: 24a2 f375 74e7 1440 3079 a812 0ade 1440
00000250: d70d 25a4 7f23 1440 da9e 6a3e f872 1440
00000260: 96e3 bace 2b83 1440 1e96 bcf0 3986 1440
00000270: a0a0 b9f3 694a 1840 860d 0522 7a08 1c40
00000280: 0939 4ab9 56d6 1940 b4c9 e193 4edc 1940
00000290: 5db0 0a8a d565 1840 451d 0c2b cb16 1a40
000002a0: 554e 7b4a ce29 1b40 10ca fb38 9a0b 1c40
000002b0: 1844 ff5f d05d 1c40 04f1 70f1 a651 1c40
000002c0: 560d c2dc ee7d 1f40 995b 6b39 e187 1d40
000002d0: c32a dec8 3c8a 1940 275a a8eb 3fe1 1840
000002e0: 03b6 8311 fbfc 1640 9ab8 b0c9 75a6 1840
000002f0: ecdf f599 b3c6 1840 64a4 28e1 53ca 1840
00000300: 609a d832 cfa8 1840 3e39 af56 9281 1740
00000310: 15d8 adaf bf16 1840 623e 6a5d b421 1840
00000320: 19cb 4f05 377d 1740 fba4 2435 fe5e 1740
00000330: e6ed 6360 7800 1840 f384 6fab 6abb 1440
00000340: 801c debd ed93 1440 a3dd 32f1 589d 1540
00000350: 014c be7e 2de4 1340 fdb1 5aaa 1c14 1640
00000360: 07ac 66e7 7e90 1740 a44d 7a84 3fc8 1440
00000370: 7bee a941 3d02 1440 85f4 caab 2957 1640
00000380: e507 5339 9220 1640 1bc2 8c84 1146 1640
00000390: a2cf ec5f fe3f 1640 0229 b16b 7b53 1b40
000003a0: 0ec6 e3fd 1367 1840 917d 9065 c1e4 1c40
000003b0: 1241 e614 2e65 1d40 9a99 9999 9989 1340
000003c0: 67a0 8db7 f0ff 1340 ca1c 2675 5df3 1340
000003d0: 3843 160e 2953 1540 ce3e 45c4 83fc 1440
000003e0: ac8c 463e af10 1540 6007 29d3 c3cb 1440
000003f0: 2c4c 3a25 7b3f 1440 01dc 2c5e 2c5c 1440
00000400: 8016 a64a ef76 1440 7a6a 9a1c e38f 1440
00000410: 91c0 d5f0 e38e 1440 5a96 5412 7e96 1740
00000420: 10c4 1e7f 0ea8 1740 4cdf 6b08 8eb3 1840
00000430: 6bd7 84b4 c620 1740 1c30 fe6c 9acd 1640
00000440: 4770 c8ab 18d3 1740 4100 ba79 f478 1640
00000450: 1ad4 c8f8 4117 1640 277a 2af1 ca47 1840
00000460: 3eec 8502 b6eb 1740 cc1a 063d e582 1740
00000470: ed52 d966 19f0 1540 a370 e250 64f2 1540
00000480: c059 efdc 20f7 1740 b889 a427 76f6 1340
00000490: b616 c15a 10a5 1540 31fc f1a8 429d 1540
000004a0: e294 b9f9 46cc 1440 6db7 13db 93c6 1440
000004b0: 4d43 f927 5dbf 1440 77aa 3242 2eb7 1540
000004c0: 8094 7dfc 4abc 1540 2277 6c5f 9b98 1540
000004d0: a4e0 29e4 4a95 1840 4ad6 3ca2 9de6 1840
000004e0: 131e 7e48 091b 1840 8000 080e 1e6c 1540
000004f0: f9c5 5b9d 52cc 1640 2504 abea e5cf 1640
00000500: e079 f365 b30c 1540 e1d2 31e7 1913 1540
00000510: 5808 066b f716 1540 af64 2200 9347 1540
00000520: 2084 db35 7c56 1540 549f f53a f374 1540
00000530: 6952 af00 4b63 1540 56e2 f038 fb89 1540
00000540: 162e 50f7 a686 1540 e52e 1dce 5784 1540
00000550: 10bb a58b 03be 1540 44e4 4faf efce 1540
00000560: 1c1d a1b0 d5cf 1540 1a1a 4f04 71be 1540
00000570: adba b31b 229b 1540 03c7 0a23 62af 1540
00000580: f50e 5c8a 50f9 1540 a219 d533 ce08 1640
00000590: ec55 bf2d b313 1740 5683 8b70 eec2 1a40
000005a0: 1566 eb2a ee99 1940 73e6 689f d8a4 1940
000005b0: 165d 28aa c86a 1940 2c21 6981 870b 1640
000005c0: b7c1 3f5b bdf9 1440 1ab8 4d02 e5a8 1540
000005d0: ae7d a603 feed 1640 0150 c58d 5be4 1640
000005e0: ef0e df78 2de7 1a40 bd3a 223a 5f27 1b40
000005f0: 2904 7289 2307 1c40 9a7a dd22 3046 1440
00000600: d9e7 d610 c1cd 1640 7a5d 75d3 1c07 1540
00000610: a4ee b902 c0ef 1440 efa3 6483 9647 1640
00000620: dc68 5b28 f485 1640 ffec a243 3bca 1540
00000630: c7ce 801f 7abf 1540 5452 27a0 8918 1440
00000640: b0c0 a101 0673 1740 935c 59fd 6c17 1640
00000650: 9380 e211 26de 1640 25ea 059f e6cc 1640
00000660: a918 4229 b5aa 1340 3544 15fe 0c77 1340
00000670: 0c97 b091 7fa9 1340 9468 c9e3 6901 1740
00000680: 0437 52b6 484a 1740 8fd3 c6c7 ddce 1540
00000690: 3c55 74da 091d 1540 2870 a1e1 830d 1540
000006a0: ff59 f3e3 2ffd 1440 760b 6eb5 9819 1540
000006b0: ee92 dd71 2f55 1540 ec1d 24fa 6b98 1540
000006c0: 21a9 2ad9 56a8 1540 cc52 fc29 9f2f 1540
000006d0: 3f9c 76e7 3fba 1440 e7dc 92c1 f658 1440
000006e0: 1df3 f054 7658 1640 ca36 7007 ea54 1640
000006f0: 505f 854a 1272 1540 368c 2727 7fa4 1840
00000700: c14e 56b1 9d04 1840 9c80 704f a1ac 1740
00000710: c936 154e 773b 1840 3bce 2335 a3ad 1440
00000720: 6793 686e 2acf 1440 fb40 4d88 14be 1640
00000730: cb5f c6b9 f25e 1840 0658 f503 687d 1740
00000740: dd9a cf14 9518 1540 90bc 7328 430d 1540
00000750: aef0 2e17 f15d 1440 39e5 1b1b cb9d 1440
00000760: f052 454c e495 1440 b83a a528 3c35 1640
00000770: 4ebc 5ef5 db2a 1540 b552 08e4 1227 1540
00000780: ac49 01b3 8cfe 1440 284b 08b1 8e1e 1640
00000790: 5942 8875 f409 1940 4d90 c7c2 c6c3 1a40
000007a0: 0d57 62f9 4e47 1a40 c151 9731 aa21 1940
000007b0: e642 4019 3e45 1740 8285 ddc1 9941 1840
000007c0: 46f1 8524 0e5c 1540 853e fd0c 14fd 1440
000007d0: afa0 1ffc 7a9c 1740 95f6 6118 0b56 1740
000007e0: 0d29 50d5 4e0e 1640 0858 ab76 4d10 1540
000007f0: 6f56 8eda 0edf 1540 bceb c781 b2f4 1440
5.9665352 5.5524622 5.6574668 5.77143 5.5229441 5.7635488 5.8677885 5.9736731
5.8725767 5.9392295 6.0491364 5.8361929 5.8954765 5.8173314 5.0430146 4.9645756
4.9984689 5.738608 6.2793353 6.2742971 6.3279537 6.2977556 6.3153135 6.2894401
6.3590023 6.3146259 6.9770858 6.925014 6.8831807 6.8847355 7.6676979 7.7168641
6.9559774 5.7247679 5.4128025 5.7325167 5.2863103 5.217483 5.2538344 5.3341607
5.4636309 5.4489478 5.4622906 5.7209513 5.9474514 5.9215021 5.4744327 5.5030173
5.469702 6.0712344 6.051562 5.6859635 5.7846683 5.6179131 5.7575899 5.7917125
6.1362887 6.2931635 6.3917635 6.4191786 6.4241242 6.4359233 5.8721341 5.9699155
5.9701339 6.0516993 5.057086 5.2400851 5.1174092 4.9177916 5.1071796 5.2325132
5.2260302 5.2168353 5.0346666 5.1122751 5.1280968 5.1310804 6.0726698 7.0082784
6.4593152 6.4651435 6.0994474 6.5222594 6.790826 7.0113305 7.0916152 7.0797384
7.8729815 7.3826951 6.3849975 6.2199704 5.7470515 6.1625587 6.1940445 6.1975856
6.1648529 5.8765348 6.0222156 6.0329146 5.8722802 5.8427666 6.0004592 5.1830241
5.1444616 5.4036596 4.9728298 5.5196406 5.8911091 5.1955548 5.0021868 5.5851199
5.5318078 5.5684262 5.5624938 6.8315255 6.1006622 7.223394 7.3488086 4.884375
4.9999417 4.9876612 5.3312113 5.2465964 5.2662935 5.1989892 5.0619932 5.090013
5.1161472 5.1405148 5.1395414 5.8969653 5.9141178 6.1753465 5.782008 5.7007844
5.9561488 5.6181201 5.5227126 6.0701101 5.9801865 5.8778276 5.4844719 5.4867108
5.9913363 4.9906851 5.4111952 5.4035746 5.1994895 5.1939234 5.1868788 5.4288874
5.4338798 5.3990302 6.1457935 6.2252107 6.0264026 5.3555834 5.6995339 5.7030255
5.2624031 5.2686535 5.2724282 5.3198967 5.3344582 5.3642091 5.3469658 5.3847474
5.3814963 5.3792412 5.4355604 5.4520862 5.4529636 5.435978 5.4014973 5.4212728
5.4934713 5.5085991 5.7692382 6.6903627 6.4003226 6.4109826 6.3542811 5.5112591
5.2438864 5.4149361 5.7324143 5.7230055 6.7257594 6.7884492 7.0069715 5.068543
5.7009318 5.2569459 5.2341309 5.5699101 5.6308142 5.4474917 5.4369893 5.0239625
5.8623276 5.5228767 5.7169421 5.7000985 4.9167067 4.8662605 4.9155257 5.7513805
5.822543 5.4520179 5.2783579 5.2631984 5.247253 5.2749966 5.3331888 5.3988494
5.4143938 5.2965056 5.1818844 5.0868788 5.5863889 5.582924 5.3613979 6.1606413
6.0045078 5.9185841 6.0580723 5.1695679 5.2023103 5.6856252 6.0927228 5.8724671
5.2740062 5.2629515 5.09174 5.1540951 5.1463787 5.5519873 5.2918547 5.288158
5.2485836 5.5298412 6.2597216 6.6911879 6.5696372 6.2828758 5.8176197 6.0640631
5.3398977 5.2471468 5.9028129 5.8340267 5.5139726 5.2659205 5.4678301 5.2389622
